checkpoint/classifier/REDDIT-BINARY/GCN.pth (torch, 3744 bytes, 6 tensors)

conv1.bias f4 [16]
-0.07773279 0.20764934 0.16819827 0.20249365 0.21377997 -0.067207634 0.24441254 -0.06215924
-0.0756176 6.444794e-06 -0.05256649 -0.043587003 -0.06593483 0.18337893 0.18982331 -0.05804717
00000000: 5e32 9fbd 07a2 543e 2b3c 2c3e 7f5a 4f3e
00000010: 23e9 5a3e 28a4 89bd 4847 7a3e b09a 7ebd
00000020: 66dd 9abd 5c40 d836 f64f 57bd 4988 32bd
00000030: d708 87bd b0c7 3b3e 0b61 423e dfc2 6dbd

conv1.lin.weight f4 [16, 1]
0.76149833 -0.7465418 -0.59048986 -0.163711 -0.7594617 0.68882245 -0.20188455 0.59352684
0.7554732 -8.653579e-06 0.52065384 0.4343505 0.6327543 -0.66241246 -0.6681853 0.5750687
00000000: 8ef1 423f 5d1d 3fbf 582a 17bf dba3 27be
00000010: 156c 42bf ab56 303f d3ba 4ebe 60f1 173f
00000020: b166 413f d72e 11b7 9249 053f 3063 de3e
00000030: 30fc 213f dd93 29bf 310e 2bbf b437 133f

conv2.bias f4 [16]
-0.00037437872 0.019025248 -0.007121909 0.013248608 -0.05826591 -0.0037770788 -0.051501095 0.008067476
-0.028772179 -0.0089890435 -0.034045435 -0.0030852903 -0.008800672 -0.013512508 0.0115206195 -0.0043409336
00000000: 4348 c4b9 d6da 9b3c e75e e9bb b110 593c
00000010: 3ca8 6ebd de88 77bb d0f2 52bd 722d 043c
00000020: a2b3 ebbc c846 13bc 3a73 0bbd 9532 4abb
00000030: b230 10bc 9163 5dbc fbc0 3c3c 643e 8ebb

conv2.lin.weight f4 [16, 16]
0.092086345 -0.1970727 -0.20017402 0.09270532 -0.22354425 0.2848014 0.10760081 0.2500991
0.21780239 3.162435e-06 0.1772442 0.15116861 0.28380913 -0.207597 -0.23193026 0.1823886
-0.25064993 0.15146723 0.16401044 -0.08073851 0.20240195 -0.14078991 -0.09163558 -0.14783828
-0.1372378 -4.917256e-06 -0.13274029 -0.1133868 -0.19160101 0.16717342 0.19213365 -0.13513838
-0.2410266 0.183996 0.18405125 -0.08782712 0.23497532 -0.17697577 -0.101466306 -0.1561344
-0.27638546 -3.5356504e-06 -0.17022991 -0.13710001 -0.16196945 0.19500919 0.20719524 -0.19905882
-0.15886948 0.2184997 0.21641643 -0.099911936 0.24540576 -0.1152384 -0.11720445 -0.11120442
-0.38849437 -4.3754217e-06 -0.19156446 -0.1758761 -0.29672664 0.2093178 0.23413749 -0.25894374
-0.13399021 0.1352805 0.14472033 -0.07251377 0.18076515 -0.18132034 -0.08094565 -0.14107087
-0.18494618 -4.284714e-06 -0.11752605 -0.1050127 -0.15509984 0.14726536 0.17096592 -0.12775168
-0.1117169 0.19230542 0.19145018 -0.090182796 0.2391194 -0.27080616 -0.10427032 -0.23360473
-0.30796024 -3.662947e-06 -0.18782833 -0.11934816 -0.23939267 0.19920182 0.21585615 -0.1438602
-0.23252514 0.14035855 0.15276943 -0.075975366 0.18867368 -0.17128648 -0.085173264 -0.13894437
-0.19911468 -2.9871921e-06 -0.1317873 -0.10879559 -0.113062575 0.15495744 0.17862499 -0.13130286
0.13270384 -0.09838466 -0.1120767 0.059253354 -0.14157693 0.12417602 0.06250362 0.10354766
0.12333603 4.3342416e-06 0.09226002 0.08328467 0.10839478 -0.1092789 -0.13606972 0.09037425
0.11422597 -0.08952495 -0.10321368 0.055409633 -0.13116866 0.10844807 0.057144146 0.09782399
0.117788024 1.9639987e-05 0.0850289 0.07709537 0.099732034 -0.09908022 -0.12748982 0.08422195
-0.24161008 0.17052262 0.1775943 -0.084986135 0.21933931 -0.26186478 -0.09734515 -0.16425039
-0.23784201 -3.854383e-06 -0.1605968 -0.12882957 -0.1271663 0.18323229 0.19385973 -0.1737887
0.076222666 -0.057220057 -0.072256856 0.039955154 -0.09346788 0.07869504 0.035443243 0.067791395
0.08174441 2.9913124e-06 0.0585023 0.053430766 0.067566164 -0.0639887 -0.09097501 0.057988662
0.117529094 -0.20394997 -0.20905975 0.09537293 -0.23713452 0.23724361 0.11147939 0.25715366
0.29933056 4.4450817e-06 0.2034472 0.1220879 0.2658929 -0.2107801 -0.23890941 0.17422533
0.04622158 -0.025378883 -0.041698184 0.02331931 -0.05214557 0.0452812 0.014174626 0.040073205
0.045391586 1.2062308e-06 0.033008765 0.030631652 0.039537646 -0.03424413 -0.050559185 0.03248945
0.50900185 -0.24861169 -0.29897755 0.11858393 -0.3551734 0.35436553 0.1412375 0.29669583
0.25328574 4.4752796e-06 0.21875665 0.2553417 0.104106635 -0.31529835 -0.29544315 0.37427908
0.27517542 -0.15205312 -0.16865076 0.08142313 -0.20235908 0.16869581 0.092830405 0.15026996
0.20338024 3.3023439e-06 0.15123124 0.123714894 0.20997998 -0.17495953 -0.18627979 0.11668569
0.29469907 -0.23378405 -0.2171951 0.10088958 -0.27911422 0.25081548 0.11831317 0.2030092
0.2533187 5.878217e-06 0.20758703 0.12953214 0.1906773 -0.23793118 -0.25229377 0.19206521
00000000: c497 bc3d 6dcd 49be 6bfa 4cbe 49dc bd3d
00000010: c9e8 64be 7dd1 913e d05d dc3d fd0c 803e
00000020: 9707 5f3e 383a 5436 817f 353e f2cb 1a3e
00000030: 6e4f 913e 4f94 54be 207f 6dbe 14c4 3a3e
00000040: 3055 80be 3a1a 1b3e 5af2 273e 3b5a a5bd
00000050: 7542 4f3e 3b2b 10be 6fab bbbd eb62 17be
00000060: 1188 0cbe e8fe a4b6 12ed 07be 5737 e8bd
00000070: 0e33 44be 822f 2b3e afbe 443e b761 0abe
00000080: adcf 76be 7369 3c3e ee77 3c3e b5de b3bd
00000090: 5f9d 703e 2339 35be 91cd cfbd b2e1 1fbe
000000a0: 6582 8dbe 0346 6db6 c050 2ebe f263 0cbe
000000b0: 52db 25be 7db0 473e fd2a 543e 13d6 4bbe
000000c0: aeae 22be 63be 5f3e 459c 5d3e a19e ccbd
000000d0: a64b 7b3e 1c02 ecbd e308 f0bd 25bf e3bd
000000e0: bce8 c6be 96d0 92b6 7929 44be dd18 34be
000000f0: 8eec 97be 6857 563e bdc1 6f3e 4694 84be
00000100: bb34 09be f986 0a3e 9131 143e 1982 94bd
00000110: 801a 393e 0aac 39be d5c6 a5bd e274 10be
00000120: 8862 3dbe 6ac5 8fb6 7fb1 f0bd e610 d7bd
00000130: 7ed2 1ebe bbcc 163e b111 2f3e 56d1 02be
00000140: d4cb e4bd b6eb 443e 840b 443e c2b1 b8bd
00000150: b7db 743e 1ba7 8abe ad8b d5bd 1436 6fbe
00000160: f7ac 9dbe f3d0 75b6 1256 40be cf6c f4bd
00000170: 5a23 75be 90fb 4b3e 6509 5d3e 1750 13be
00000180: 121b 6ebe 27ba 0f3e 976f 1c3e f998 9bbd
00000190: ac33 413e b965 2fbe 526f aebd 6f47 0ebe
000001a0: b8e4 4bbe 9277 48b6 40f3 06be 39d0 debd
000001b0: 5a8d e7bd 2aad 1e3e 78e9 363e 4274 06be
000001c0: 84e3 073e e67d c9bd 7888 e5bd a5b3 723d
000001d0: 8bf9 10be ff4f fe3d e601 803d cc10 d43d
000001e0: 9a97 fc3d da6e 9136 d2f2 bc3d 2791 aa3d
000001f0: 15fe dd3d 9ecd dfbd dc55 0bbe 2316 b93d
00000200: 4eef e93d db58 b7bd b261 d3bd 36f5 623d
00000210: 1451 06be 061a de3d fb0f 6a3d f257 c83d
00000220: d93a f13d 8dc0 a437 a223 ae3d 2de4 9d3d
00000230: 4f40 cc3d 92ea cabd b18c 02be 8f7c ac3d
00000240: a268 77be 7b9d 2e3e 48db 353e 360d aebd
00000250: 7c9a 603e 2413 86be e55c c7bd 4131 28be
00000260: db8c 73be e654 81b6 7d73 24be e6eb 03be
00000270: e237 02be 3fa1 3b3e 2a83 463e aaf5 31be
00000280: a11a 9c3d 945f 6abd 67fb 93bd 04a8 233d
00000290: 166c bfbd dd2a a13d ef2c 113d 37d6 8a3d
000002a0: 9d69 a73d 5bbe 4836 1ca0 6f3d 38da 5a3d
000002b0: 2160 8a3d 820c 83bd 1b51 babd 8585 6d3d
000002c0: 18b3 f03d 43d8 50be c213 56be e252 c33d
000002d0: 64d3 72be fdef 723e 4e4f e43d a5a9 833e
000002e0: db41 993e f626 9536 7654 503e 3909 fa3d
000002f0: 1d23 883e bdd6 57be aba4 74be 2068 323e
00000300: d752 3d3d 60e7 cfbc b7cb 2abd 2308 bf3c
00000310: 9896 55bd c878 393d b13c 683c cd23 243d
00000320: 87ec 393d c6e5 a135 3334 073d 3bef fa3c
00000330: 3af2 213d 9343 0cbd 2617 4fbd a813 053d
00000340: f24d 023f 1094 7ebe 9613 99be 22dc f23d
00000350: 4ad9 b5be 666f b53e 90a0 103e 84e8 973e
00000360: abae 813e 5c2a 9636 be01 603e 26bc 823e
00000370: dc35 d53d c96e a1be 5344 97be 82a1 bf3e
00000380: cbe3 8c3e d0b3 1bbe c9b2 2cbe 2cc1 a63d
00000390: 3837 4fbe 98be 2c3e de1d be3d 5ee0 193e
000003a0: e942 503e d69d 5d36 5ddc 1a3e 3c5e fd3d
000003b0: fe04 573e 9728 33be 21c0 3ebe e8f8 ee3d
000003c0: cce2 963e 1665 6fbe 6468 5ebe 329f ce3d
000003d0: 0fe8 8ebe e36a 803e 2d4e f23d a5e1 4f3e
000003e0: fdb2 813e 803d c536 b291 543e 13a4 043e
000003f0: e940 433e 3ba4 73be a62c 81be beac 443e

fc.weight f4 [2, 16]
0.36701214 -0.3055134 -0.33493063 -0.5587503 -0.45540297 -0.4843009 -0.25013518 0.3313818
0.21048622 -0.48993394 0.119647674 0.50673133 0.110421516 0.62628937 0.5229607 0.4920151
-0.5156767 0.44749084 0.49209073 0.4230023 0.19920142 0.368075 0.44728303 -0.19490154
-0.27592117 0.304841 -0.2190911 -0.4158464 -0.082745455 -0.5789493 -0.23401192 -0.49495646
00000000: 04e9 bb3e 416c 9cbe 077c abbe 420a 0fbf
00000010: 942a e9be 4af6 f7be b811 80be e0aa a93e
00000020: b389 573e 9fd8 fabe d709 f53d 25b9 013f
00000030: ad24 e23d 8054 203f c1e0 053f 67e9 fb3e
00000040: 6303 04bf 851d e53e 51f3 fb3e c293 d83e
00000050: 75fb 4b3e 5474 bc3e 4802 e53e 4594 47be
00000060: 8a45 8dbe 1f14 9c3e 6b59 60be d2e9 d4be
00000070: 7376 a9bd 0536 14bf d2a0 6fbe ef6a fdbe

fc.bias f4 [2]
-0.13487513 -0.1707522
00000000: b51c 0abe aad9 2ebe
