checkpoint/classifier/MUTAG/GCN.pth (torch, 4128 bytes, 6 tensors)

conv1.bias f4 [16]
000000 81 5c 3e bc ad c0 5a be 95 86 35 3e 2a 5d dc 3c
       -0.011618734 -0.21362562 0.1772712 0.026899893
000010 7a a0 34 be d8 d0 5b be 43 93 72 bd 5a 59 c7 bd
       -0.17639342 -0.21466386 -0.05922247 -0.09733839
000020 f3 b1 6c 3e f7 3c 8b bd 57 65 91 bc 91 04 02 3e
       0.23114757 -0.067987375 -0.017748518 0.12697054
000030 4d 64 c1 bd 76 89 8c bb 9f af 44 3e a1 35 c1 3b
       -0.09442959 -0.0042888476 0.19207619 0.0058962856

conv1.lin.weight f4 [16, 7]
000000 21 20 9a b4 47 fa 18 b5 3c 11 03 3b 52 69 dc b4
       -2.8708112e-07 -5.6988614e-07 0.0019999286 -4.1054824e-07
000010 5e 58 81 31 52 c6 91 b2 d6 52 ba 33 2e 7a c7 3e
       3.7644403e-09 -1.6970407e-08 8.676368e-08 0.38960403
000020 19 ed f1 be 5d 39 28 be 4f 74 ac be dc c4 89 3e
       -0.47251204 -0.16428132 -0.33682486 0.26908004
000030 b9 6a 06 be 41 22 b8 bd 76 40 40 be af 9f 11 3f
       -0.13126649 -0.089909084 -0.1877459 0.5688428
000040 fc 62 4c bf b9 d0 69 3e d3 3b 33 be 48 e1 a1 3e
       -0.7983854 0.22833528 -0.1750329 0.31617188
000050 83 fa 82 3e 88 78 08 bd fb 02 32 3f 8e f0 14 bf
       0.2558175 -0.033318073 0.695358 -0.5817956
000060 82 d9 ab 3e 80 59 a4 bd 45 fa e5 3e cf a5 ac 3e
       0.33564383 -0.08024883 0.44917503 0.33720252
000070 b5 f7 9f 3e 70 88 00 bf 22 27 42 be cb a2 8d be
       0.31243673 -0.5020819 -0.1896024 -0.27663264
000080 4e 35 73 3e 3c c8 65 be 64 54 03 be cf f7 ad 3e
       0.23750803 -0.22439665 -0.12825161 0.33978125
000090 4e 7c 7f be 89 8f be bd a2 29 b9 be 68 4f c1 3d
       -0.24949762 -0.09304721 -0.36164576 0.09438974
0000a0 a2 2b bb bd 0a b2 a1 bd 07 3a 6e bd 74 bc 19 39
       -0.09139182 -0.078952864 -0.058160808 0.00014661421
0000b0 80 d2 f8 39 d7 9e 3a 37 2d 8d 35 b8 a5 9c 91 38
       0.0004745908 1.1123447e-05 -4.3285243e-05 6.943316e-05
0000c0 2d 21 01 b7 9d 5c 19 bc a7 45 5d 3f 2d 69 10 bf
       -7.6967235e-06 -0.00936046 0.86434406 -0.56410486
0000d0 42 fc 27 b2 eb e7 bf b2 7b 68 12 3f 6e 78 82 34
       -9.778036e-09 -2.234079e-08 0.57190675 2.430201e-07
0000e0 2b 22 76 be eb dc 9c bf 00 47 48 3e a9 0a b7 3e
       -0.24036472 -1.2254919 0.19558334 0.3575032
0000f0 ca d0 7a be cf ef 01 3f 05 37 2c 3e df 63 ee bc
       -0.24493709 0.50756544 0.16817863 -0.029100357
000100 07 77 d2 b5 5b 0b b6 3b 54 b8 8e 31 ae a7 14 b3
       -1.5680861e-06 0.005555553 4.1536996e-09 -3.461144e-08
000110 f4 c6 8a b3 cc 8d d3 b0 33 de 2c 3e 5f ca ad be
       -6.462315e-08 -1.5392572e-09 0.16881637 -0.3394346
000120 fb f1 a9 be a9 a8 bb be e2 9f 2d 3e 49 ed 6f be
       -0.3319243 -0.36652115 0.16955522 -0.23430361
000130 80 22 bd bd de ec e2 bd c6 25 55 bf 02 e3 28 3e
       -0.09235096 -0.11080335 -0.8326076 0.16492847
000140 fc 0e be 3e cf f9 50 be cc 1a 1f 3f 35 53 8c 3d
       0.37120807 -0.20407794 0.62150264 0.06851808
000150 32 fb 75 3e f0 b6 bb be 82 a9 88 be 0b cd ae be
       0.24021605 -0.36663008 -0.26691824 -0.3414081
000160 a5 e1 50 3e 04 7a 27 be 2d 71 4f bd cf 38 11 b4
       0.20398577 -0.16355139 -0.050645042 -1.3524844e-07
000170 f4 d7 b5 b5 eb f5 05 3a da 5b 11 b3 84 44 9d b3
       -1.3548402e-06 0.0005110192 -3.3843982e-08 -7.323345e-08
000180 bf 03 83 33 e0 ce 35 b3 91 1d 38 be 5a 5c ed 3e
       6.100844e-08 -4.2330498e-08 -0.17980029 0.4635952
000190 15 68 38 bf 43 d5 95 3e 9c 7d 6c be dc 43 27 3f
       -0.72033817 0.29264268 -0.23094791 0.6533792
0001a0 96 56 f0 3d 61 67 39 3e 50 b1 c6 be 12 59 b8 be
       0.11735265 0.18105842 -0.38807154 -0.36005455
0001b0 84 e7 d9 be cb 7f 63 3e 17 6d 67 be 2f de f1 bd
       -0.42559445 0.22216718 -0.22600208 -0.11809956

conv2.bias f4 [16]
000000 2f 10 9d 3d bb d1 64 bc 3f be 8b bb 42 3c 2f 3c
       0.076691024 -0.013966019 -0.0042646225 0.010695519
000010 2e b8 16 bb 12 43 21 3d eb 01 05 3d 33 e8 4d bc
       -0.0022997963 0.039370604 0.032472532 -0.012567568
000020 8f d8 4d bc 19 51 3f bc 0c 3c 33 bd ae 15 a3 bc
       -0.012563839 -0.01167705 -0.043758437 -0.019907799
000030 9a 68 8e bc 23 8a 1c bd 1a 21 86 3c 18 6b 93 bd
       -0.017383862 -0.038217675 0.016373206 -0.07198161

conv2.lin.weight f4 [16, 16]
000000 17 61 c6 32 55 64 19 be 54 af 88 3e 16 9d ba 3e
       2.3094385e-08 -0.1497968 0.26696265 0.36447972
000010 e0 21 20 be bc 4e 76 bd b7 30 1d b6 bf 7e 89 3e
       -0.15637922 -0.06013368 -2.3423179e-06 0.26854512
000020 c1 9c 0a 3f 15 9c 04 b4 53 85 38 be 1e 89 b2 3e
       0.5414544 -1.235024e-07 -0.18019609 0.34870237
000030 a4 b1 4f be 00 17 c8 32 4d 40 ae 3e 76 e7 3b be
       -0.20282608 2.3293524e-08 0.34033433 -0.18350014
000040 d4 35 43 b4 94 8f a3 be fc 97 97 3e 76 26 b7 3e
       -1.8180373e-07 -0.3194548 0.29608142 0.3577153
000050 bd e8 3f bc 02 63 5f be 8b c0 06 38 f3 44 9f 3e
       -0.011713204 -0.21815112 3.212741e-05 0.31107292
000060 7c fb 18 3f 13 96 c3 b3 25 12 0c be 9d 29 d7 3e
       0.59758735 -9.1076934e-08 -0.13678797 0.42023936
000070 61 18 42 be c0 67 6f 33 71 b7 da 3e 0a a6 47 be
       -0.18954612 5.5740884e-08 0.4271808 -0.19496933
000080 4c b1 d8 32 19 7e 8a bd fd 65 79 3e e0 3e 9e 3e
       2.5226335e-08 -0.067623325 0.24355312 0.30907345
000090 03 35 7a be 26 d8 1c be 46 36 95 38 ae fe 7c 3e
       -0.24434285 -0.15316829 7.114983e-05 0.24706528
0000a0 37 68 fe 3e f4 c9 59 33 ed ed 0c be d8 ba bd 3e
       0.49688885 5.0707925e-08 -0.13762636 0.37056613
0000b0 3f ca 54 be 8c 16 26 b3 c4 72 ac 3e 34 4f 30 be
       -0.20780276 -3.8670393e-08 0.3368131 -0.17217714
0000c0 8e f3 63 33 57 54 f0 3d 28 e6 27 be 5f 79 8a be
       5.3074068e-08 0.117348365 -0.16396391 -0.27045724
0000d0 23 73 57 3e 72 ba 63 3e af df 23 b8 3f fa d3 bd
       0.21040015 0.22239092 -3.907055e-05 -0.10350465
0000e0 33 6a bf be a8 74 41 b4 b4 32 d4 3d 44 6b 91 be
       -0.3738571 -1.8016965e-07 0.10361233 -0.2840215
0000f0 15 41 03 3c 44 03 cb 33 92 2d 80 be fe ab 0c 3e
       0.008011122 9.453518e-08 -0.25034767 0.13737485
000100 31 60 f2 b3 28 5c 49 3e d7 fa 03 be 55 c2 6a be
       -1.12865e-07 0.19664061 -0.12888657 -0.22925694
000110 f8 1e 0e 3d ea ed 41 3e cd d6 29 b8 a8 76 0c be
       0.034697503 0.18938413 -4.049279e-05 -0.13717139
000120 22 96 ae be 46 28 f6 31 da 54 c9 3d 22 ed 85 be
       -0.34098917 7.164121e-09 0.09830637 -0.2615748
000130 2e c1 bc 3d b2 da 6d 33 98 f1 63 be 07 47 02 3e
       0.092165336 5.5379765e-08 -0.2226013 0.12722407
000140 89 f6 88 33 2d c7 ac 3e 8b a6 9f be 4a 24 af be
       6.377838e-08 0.3374571 -0.3118175 -0.34207374
000150 05 d9 ee 3d a8 b7 65 bb d6 cc 9c 37 67 0a aa be
       0.11662487 -0.0035052095 1.8692033e-05 -0.3321106
000160 b7 e5 1e bf 1a 43 c9 33 84 19 14 3e d1 ea d9 be
       -0.6206927 9.3719976e-08 0.14462858 -0.42561963
000170 94 97 b1 3d 92 d5 2d b3 41 7f db be a8 e6 50 3e
       0.08671489 -4.0473942e-08 -0.42870525 0.20400488
000180 d2 b8 e0 b2 26 c2 4f 3d 22 8a 8a be d4 24 db be
       -2.6161079e-08 0.050722264 -0.27058512 -0.42801535
000190 44 01 83 3e 83 f7 31 3e d8 0b 7e b8 be 0f 8d be
       0.25586903 0.17379574 -6.056935e-05 -0.27551073
0001a0 da a4 0d bf 3c 83 14 b2 c6 69 08 3e 66 e1 bf be
       -0.5532967 -8.644573e-09 0.133216 -0.37476653
0001b0 5c 05 31 3e a3 47 01 b4 4f 48 b0 be a5 8b 3c 3e
       0.172872 -1.2040122e-07 -0.34430167 0.18412645
0001c0 be bb 30 b4 2c 6c 58 bd 45 a2 61 3e a1 21 a0 3e
       -1.6459578e-07 -0.052837536 0.22034557 0.31275657
0001d0 e5 91 5d be 43 25 4b be 7e 05 1a 38 8a 9a 1d 3e
       -0.21637686 -0.19838433 3.6721576e-05 0.15390983
0001e0 eb 0e e3 3e 43 bc bc b3 d8 c2 1b be 3b 2f a2 3e
       0.4434732 -8.788677e-08 -0.15211046 0.3167666
0001f0 b7 e4 e5 bd 7f e4 d4 b2 64 93 9b 3e c2 69 21 be
       -0.112252645 -2.4783956e-08 0.30385888 -0.15763
000200 d5 bd 23 34 2c 9f 63 be 1e 27 ac 3e af 65 d4 3e
       1.5249618e-07 -0.22228688 0.33623594 0.41483828
000210 99 d2 9b be 2e b5 df bd 8c e9 2c 38 b2 70 8a 3e
       -0.3043411 -0.10923229 4.1225503e-05 0.27039105
000220 fc 12 19 3f 9c 50 8b 33 b8 7b ef bd 88 bb df 3e
       0.5979459 6.487355e-08 -0.11693519 0.43697762
000230 14 72 80 3c 49 b5 2c b3 fb f9 b2 3e c5 91 48 be
       0.015679397 -4.021175e-08 0.34956345 -0.19586857
000240 d0 d2 d8 32 3c d3 42 be 16 0b 55 3e 4e 7a b6 3e
       2.5241576e-08 -0.19025892 0.2080501 0.35640186
000250 a7 c3 93 bd ee f1 1c be 5f 1a 7d 38 c2 57 19 3e
       -0.07215052 -0.15326664 6.034446e-05 0.14974883
000260 8b 1d f3 3e fd 84 2a b3 52 f9 01 be 14 27 b1 3e
       0.47483477 -3.970216e-08 -0.12692764 0.34600127
000270 55 46 3e be 13 c8 8a b1 73 d6 96 3e bb 11 29 be
       -0.18581517 -4.0390744e-09 0.29460487 -0.1651067
000280 bf 62 0b b1 02 df e0 3c a9 79 93 3e e9 24 b0 3e
       -2.0283293e-09 0.027450088 0.28803757 0.3440316
000290 5e c8 1f be c9 15 99 be 5c 45 4b 38 dd fa a3 3e
       -0.15603778 -0.29899433 4.8463568e-05 0.3202733
0002a0 5c 61 07 3f f9 1f 7d b6 f8 1d 1d be de ee ce 3e
       0.52882934 -3.7718548e-06 -0.15343463 0.40416616
0002b0 85 0e 3c be 42 b9 28 b4 1c e1 c7 3e ab 5b 3b be
       -0.18364914 -1.5713616e-07 0.39038932 -0.18296687
0002c0 8a f5 d7 b2 47 8c 16 3e cf 3a 03 be db bf 41 be
       -2.5140952e-08 0.14701949 -0.12815402 -0.18920843
0002d0 ec 8d 0f bb 03 84 12 3e c8 dd 5e 38 51 f4 ff bd
       -0.002190466 0.14308171 5.3135474e-05 -0.124977715
0002e0 7a 55 a9 be a0 d7 88 b3 91 db 9b 3d 17 7b 86 be
       -0.33073026 -6.3722155e-08 0.07610238 -0.26265785
0002f0 a5 01 eb 3c 7b 3c f6 33 dc ab 58 be 03 4b 00 3e
       0.028687308 1.1466269e-07 -0.21159309 0.12528615
000300 63 ec 8b b4 5c 7c 9a be 93 af c1 3e d8 31 c3 3e
       -2.6062762e-07 -0.30173004 0.37829265 0.38123965
000310 1c 4c 97 be 5e 20 1c bd 38 19 8e b8 2e e3 d1 3e
       -0.29550254 -0.038116805 -6.775785e-05 0.40993637
000320 16 ab 3b 3f 9e 9a 79 b6 31 29 53 be e2 65 d7 3e
       0.7330793 -3.719389e-06 -0.20621182 0.42069918
000330 5f b5 95 be cc 8f 2e 31 cc 3e 02 3f a7 c1 61 be
       -0.29239938 2.5402072e-09 0.5087707 -0.22046529
000340 b2 bf 07 33 9a 05 60 3d 15 a5 2b bd 00 fb 8f bd
       3.1606483e-08 0.054692842 -0.04190548 -0.07030296
000350 6b 8e 9f 3c 1b 76 a2 3d 1c 45 90 b8 fe 14 00 bd
       0.01947709 0.07932683 -6.879328e-05 -0.03127002
000360 13 c7 f3 bd ab e9 e8 b3 5f 36 9a 3c 73 da c7 bd
       -0.11903205 -1.0845846e-07 0.018824754 -0.09758463
000370 fa 6b 4d 3c da 2a bf 31 09 20 8c bd b8 f6 58 3d
       0.012537951 5.5637033e-09 -0.06842048 0.052969664
000380 dd 16 1b 34 12 fc 91 3e c0 b0 b0 be af 20 f4 be
       1.4443818e-07 0.28512627 -0.3450985 -0.47681186
000390 27 b8 5f 3e fe ba 9e 3e 0b ef 5f 38 5e 24 bc be
       0.21847592 0.3100204 5.338997e-05 -0.36746496
0003a0 0d ee 1c bf cf 1b bf b0 96 6f 90 3e 28 f5 e8 be
       -0.61300737 -1.3904983e-09 0.28210133 -0.4549954
0003b0 43 a4 c3 3e 5d b2 53 34 67 2f f8 be 43 e6 4f 3e
       0.3821126 1.9715795e-07 -0.48473665 0.20302682
0003c0 b4 ca 97 b2 c1 3d 27 3e 33 5b 3a be 24 e2 a1 be
       -1.7670892e-08 0.16332151 -0.18198852 -0.31617844
0003d0 84 2c 2a 3e d7 a3 f6 3d d3 44 fb b7 1e f3 62 be
       0.16618544 0.12042969 -2.995358e-05 -0.22163054
0003e0 55 2e e8 be 52 75 fb 33 d6 b1 c3 3d 7d 40 a0 be
       -0.4534785 1.1709439e-07 0.09555404 -0.312992
0003f0 3c b3 96 3d fc ac 71 2f 47 a1 9a be 84 63 26 3e
       0.07358405 2.1980279e-10 -0.3020117 0.162489

fc.weight f4 [2, 16]
000000 cd 7f e6 3e 8d ef 24 3f 35 91 0a 3f e8 87 b7 be
       0.4501938 0.64428025 0.5412782 -0.35845876
000010 52 52 aa be f6 01 2a bf 03 0f 16 bf d9 43 b1 3e
       -0.3326593 -0.6640924 -0.58616656 0.34622076
000020 d0 36 1b 3f 75 89 d9 3e 8f 2b 13 3f 48 bd d7 be
       0.6063051 0.42487684 0.5748834 -0.42136598
000030 53 a3 43 3f c1 fc 6d bd e0 18 19 bf e6 b6 df be
       0.7642109 -0.058102373 -0.5980358 -0.43694228
000040 62 f4 1f bf 64 a4 0f bf a6 ab e4 be 16 41 c6 3e
       -0.62482274 -0.56110215 -0.44662207 0.38721532
000050 88 7c af 3e 2e f6 1c 3f ff 20 05 3f f7 0b 0a bf
       0.34274697 0.6131314 0.52003473 -0.53924507
000060 12 64 1a bf 20 1b 07 bf dc 77 06 bf 66 38 72 3e
       -0.60308945 -0.52775764 -0.5252664 0.23654327
000070 3a 24 33 bf 58 5e 32 3e 4b 29 2b 3f 4c e0 ef 3e
       -0.6997715 0.17418802 0.66859883 0.46850812

fc.bias f4 [2]
000000 81 f1 9d bd a1 40 28 3e
       -0.07712079 0.16430904
