checkpoint/classifier/IMDB-BINARY/GCN.pth (torch, 3744 bytes, 6 tensors)

conv1.bias f4 [16]
0	0xbf61db02	-0.88224804
1	0xbec14cb4	-0.37753832
2	0xbf078ee7	-0.52952427
3	0xbd7a178e	-0.06105762
4	0xbdc5d21c	-0.09659216
5	0xbeef9c02	-0.46798712
6	0xbf559ae2	-0.8343946
7	0xbeb99029	-0.36242798
8	0xbee78980	-0.45222092
9	0xbf7500ce	-0.9570435
10	0xbe068261	-0.13135673
11	0xbd79b63c	-0.060964808
12	0xbdd7bc81	-0.10534001
13	0xbe9776fc	-0.29582965
14	0xbf4057e1	-0.7513409
15	0xbf03e0c5	-0.51514846

conv1.lin.weight f4 [16, 1]
0	0x3f1701f3	0.5898735
1	0xbf36a1dd	-0.71340734
2	0xbf39480a	-0.7237555
3	0xbee2d3a7	-0.44302103
4	0xbecba220	-0.3977213
5	0xbf23bdae	-0.63961303
6	0x3f153682	0.582863
7	0xbf39688f	-0.7242517
8	0x3f468434	0.77545476
9	0x3f1e33cb	0.6179778
10	0xbf02c442	-0.51080716
11	0xbee1ee7c	-0.44127262
12	0xbce46092	-0.02787808
13	0xbf18d7b4	-0.59704137
14	0x3f051a1e	0.51992977
15	0x3eba5321	0.36391547

conv2.bias f4 [16]
0	0x3d7e72b1	0.062121097
1	0xbcea568c	-0.028605722
2	0x3d276f25	0.04087748
3	0x3d48180e	0.048851065
4	0x3d7203c7	0.059085634
5	0xb985ad6b	-0.00025496943
6	0xbd43b54a	-0.047780313
7	0xbd5e60d7	-0.054291572
8	0xbd74f05a	-0.05979953
9	0x3bed0479	0.007233199
10	0xbbc09793	-0.005877444
11	0x3d8524c0	0.0650115
12	0xbd25e651	-0.04050285
13	0x3da90401	0.08252717
14	0x3d748a12	0.059701987
15	0x3d5aa3e4	0.053378955

conv2.lin.weight f4 [16, 16]
0	0xbece6bea	-0.40316707
1	0xbe6d6eb3	-0.2318676
2	0xbeaf376f	-0.3422198
3	0xbdc97560	-0.09836841
4	0xbdeae52a	-0.11469491
5	0xbea9421c	-0.3305825
6	0xbecdd473	-0.40201148
7	0xbe64e142	-0.22351554
8	0x3ec165fa	0.37773114
9	0xbec6268e	-0.3870129
10	0xbe1e4f71	-0.15459992
11	0xbdea002a	-0.114258125
12	0xb1597f3e	-3.1649985e-09
13	0xbe8eca8a	-0.278889
14	0xbebbaadc	-0.36653793
15	0xbe8870b9	-0.266485
16	0x3eaf2b80	0.34212875
17	0x3e46be18	0.19408453
18	0x3e9457e7	0.28973314
19	0x3dcd4334	0.100225836
20	0x3dc34683	0.095349334
21	0x3e9056ff	0.28191373
22	0x3eaafa30	0.33394003
23	0x3e2b83c1	0.16749479
24	0xbe838811	-0.25689748
25	0x3ea1d55a	0.31608087
26	0x3df75093	0.12075915
27	0x3dbf127b	0.09329697
28	0xb4bb5dd5	-3.4899736e-07
29	0x3e8a243d	0.26980773
30	0x3e9b5bed	0.3034357
31	0x3e63d9fc	0.22251123
32	0xbf02dcbe	-0.51118076
33	0xbea96c19	-0.33090284
34	0xbebaa722	-0.36455637
35	0xbdf0b450	-0.11753142
36	0xbe0d49d7	-0.13797699
37	0xbed58019	-0.41699293
38	0xbefb344b	-0.49063334
39	0xbe94b6f0	-0.2904582
40	0x3e96cda8	0.29453778
41	0xbefaaa01	-0.48957828
42	0xbe6d8de3	-0.23198657
43	0xbe2a9c05	-0.16661079
44	0xba68ca95	-0.0008880285
45	0xbe747b33	-0.23875122
46	0xbee09f6a	-0.43871623
47	0xbea36297	-0.31911156
48	0xbf10fe11	-0.56637675
49	0xbe895681	-0.2682381
50	0xbeff0a5b	-0.49812588
51	0xbe787a53	-0.24265413
52	0xbe3dc30f	-0.1853144
53	0xbee3d5c8	-0.4449904
54	0xbf13a2be	-0.576702
55	0xbe96b241	-0.29432872
56	0x3eea9186	0.4581415
57	0xbf1009c1	-0.56264883
58	0xbe24251c	-0.16029781
59	0xbe52db1a	-0.20591393
60	0x3c500b46	0.012698
61	0xbeb4a259	-0.3528011
62	0xbf019bc6	-0.50628316
63	0xbeb5c538	-0.35502028
64	0xbea49145	-0.32142082
65	0xbe1fadcf	-0.15593646
66	0xbe900402	-0.28128058
67	0xbd837029	-0.06417877
68	0xbdbc7b62	-0.09203221
69	0xbe8f0f33	-0.27941284
70	0xbe9de511	-0.30838826
71	0xbe803bcd	-0.25045624
72	0x3e962603	0.29325876
73	0xbe99c15e	-0.3003034
74	0xbdf8e301	-0.121526726
75	0xbdc2313f	-0.09482049
76	0xbb0db4bb	-0.0021622616
77	0xbe87bfd5	-0.26513544
78	0xbe9229a4	-0.28547394
79	0xbe54ef0e	-0.20794317
80	0xbf0a5f43	-0.5405161
81	0xbe966f58	-0.29381824
82	0xbee93bb9	-0.45553377
83	0xbe3d77a6	-0.18502674
84	0xbe15cfa8	-0.14629996
85	0xbec0d2e7	-0.37660906
86	0xbf06595d	-0.5248011
87	0xbe7451eb	-0.23859374
88	0x3ec04058	0.3754909
89	0xbf01fec2	-0.50779355
90	0xbe23e3b3	-0.16004829
91	0xbe170f16	-0.14751849
92	0xbacf1128	-0.001579796
93	0xbeac500e	-0.33654827
94	0xbef3acd5	-0.47592798
95	0xbeaf7967	-0.3427231
96	0x3e7d334a	0.24726596
97	0x3e0eb2c2	0.13935378
98	0x3e52c6d7	0.20583664
99	0x3d827134	0.06369248
100	0x3d88c3c3	0.066779636
101	0x3e5478f4	0.20749265
102	0x3e78a380	0.2428112
103	0x3df1ea4d	0.118122675
104	0xbe6f1481	-0.23347665
105	0x3e653ead	0.2238719
106	0x3da6944d	0.08133755
107	0x3d8ad880	0.06779575
108	0x345b2c7e	2.041215e-07
109	0x3e3cfb08	0.18455136
110	0x3e635a9b	0.22202532
111	0x3e2a102c	0.16607732
112	0x3f0ed6c4	0.55796456
113	0x3ec1dd7f	0.378643
114	0x3eff4af9	0.49861887
115	0x3dd27215	0.10275666
116	0x3e37c804	0.17947394
117	0x3ef98ee1	0.4874182
118	0x3f12f890	0.57410526
119	0x3e302999	0.17203368
120	0xbf09b07c	-0.5378492
121	0x3f0f30b9	0.5593372
122	0x3e8b07fd	0.27154532
123	0x3e38c1a0	0.18042612
124	0xbb0f3b33	-0.0021855354
125	0x3e98cdf6	0.29844636
126	0x3f061e60	0.523901
127	0x3eb39661	0.35075668
128	0x3e819bed	0.25314274
129	0x3e11c94b	0.14236943
130	0x3e5816af	0.21102403
131	0x3d8f6454	0.07001558
132	0x3d8e156d	0.069376804
133	0x3e56ca43	0.20975594
134	0x3e7c9e47	0.24669753
135	0x3e07d61c	0.1326527
136	0xbe4d6d75	-0.20061286
137	0x3e6ac013	0.22924833
138	0x3daf5fa3	0.08563163
139	0x3d909fc3	0.07061722
140	0x337ecf19	5.9327338e-08
141	0x3e3dbe13	0.18529539
142	0x3e65354c	0.22383612
143	0x3e2a3613	0.1662219
144	0x3d5f3fbd	0.054504145
145	0x3d0e20cb	0.034699243
146	0x3d516c61	0.05112875
147	0x3bff8e3b	0.0077989376
148	0x3ccfa047	0.02534498
149	0x3d534dc3	0.05158783
150	0x3d8627f0	0.06550586
151	0x3d03e028	0.032196194
152	0xbd171662	-0.03688658
153	0x3d4d2006	0.050079368
154	0x3c74d2f7	0.014942876
155	0x3bcc57c2	0.0062360475
156	0xb7279bca	-9.990248e-06
157	0x3d53c805	0.051704425
158	0x3d5c64a4	0.053806916
159	0x3d273b50	0.04082805
160	0xbdbc5f3c	-0.09197852
161	0xbd69feff	-0.05712795
162	0xbda4bd19	-0.0804388
163	0xbc7e5668	-0.015523531
164	0xbcef68cd	-0.029224778
165	0xbda771c0	-0.08175993
166	0xbdcb0c69	-0.099144764
167	0xbd1974cc	-0.0374649
168	0x3d929b2c	0.07158503
169	0xbdaab0f1	-0.0833453
170	0xbcc97332	-0.024591062
171	0xbcc2bdb8	-0.023772106
172	0x34816568	2.4101905e-07
173	0xbdb8718a	-0.09006031
174	0xbdb2ea43	-0.08736088
175	0xbd875717	-0.06608408
176	0xbed08153	-0.40723667
177	0xbe4c8a6d	-0.1997468
178	0xbec319b0	-0.38105536
179	0xbe1b4ece	-0.1516678
180	0xbdfa1cb3	-0.12212505
181	0xbeb0722b	-0.34462103
182	0xbeba7875	-0.36420026
183	0xbe9faa49	-0.31184605
184	0x3e7d43b4	0.24732858
185	0xbeba0693	-0.3633314
186	0xbdb13424	-0.08652523
187	0xbdd5d947	-0.10441833
188	0x3c939957	0.018017454
189	0xbeaf4594	-0.3423277
190	0xbebd0128	-0.36914945
191	0xbe814e83	-0.25255212
192	0xbed0f18d	-0.4080929
193	0xbe617445	-0.2201701
194	0xbeab7cc6	-0.33493632
195	0xbddf6e1b	-0.10909673
196	0xbdd54711	-0.104139455
197	0xbeac2df3	-0.33628806
198	0xbecb7bec	-0.39742982
199	0xbe22e371	-0.15907075
200	0x3ec25ed1	0.37962964
201	0xbec0eea9	-0.37682083
202	0xbe081d56	-0.13292441
203	0xbdd15a70	-0.10222328
204	0x3706eb41	8.041797e-06
205	0xbe969d91	-0.2941709
206	0xbeb9aa87	-0.36262915
207	0xbe895a5e	-0.26826757
208	0x3c53a805	0.012918477
209	0xbc2bc3b7	-0.010483674
210	0xbccb93dc	-0.024850778
211	0x3ab1a7e8	0.0013554068
212	0x3bd264d2	0.00642071
213	0x3cebbc2d	0.028776253
214	0x3c5187ef	0.012788757
215	0xbc8d22d4	-0.017228521
216	0xbc08d2fe	-0.008351086
217	0x3c33f45a	0.010983551
218	0x3d30a302	0.043124206
219	0xbb76b364	-0.0037643546
220	0xbd44c4dc	-0.048039302
221	0x3cfa5029	0.030555801
222	0x3c3b2403	0.01142216
223	0x3c11d07b	0.008899803
224	0xbea19257	-0.3155696
225	0xbe35087f	-0.17679022
226	0xbe8725b5	-0.26395956
227	0xbdbc0729	-0.09181053
228	0xbdb0b4dd	-0.08628247
229	0xbe858ce2	-0.26084048
230	0xbe9dbebb	-0.30809578
231	0xbe22e874	-0.15908986
232	0x3ea307c9	0.31841877
233	0xbe936deb	-0.28794798
234	0xbde53b06	-0.111928985
235	0xbdb225b5	-0.08698598
236	0xb414eca1	-1.3869659e-07
237	0xbe56eb4f	-0.209882
238	0xbe8f7f32	-0.2802673
239	0xbe536079	-0.2064227
240	0xbecbcb84	-0.39803708
241	0xbe7da798	-0.24770963
242	0xbeaf82ac	-0.34279382
243	0xbdeb1a80	-0.11479664
244	0xbdf0e3f0	-0.11762226
245	0xbeae55a3	-0.3404971
246	0xbecae587	-0.3962824
247	0xbe8bfc73	-0.2734104
248	0x3ebafacb	0.36519465
249	0xbec25956	-0.37958783
250	0xbe2392d7	-0.15973984
251	0xbdfb0882	-0.12257482
252	0x3b9702ef	0.004608504
253	0xbea6599e	-0.32490247
254	0xbeae7c00	-0.3407898
255	0xbe806912	-0.25080162

fc.weight f4 [2, 16]
0	0x3f08665f	0.53281206
1	0xbf2ea9e1	-0.68227965
2	0x3f59f4aa	0.8513895
3	0x3f6d0547	0.9258618
4	0x3f023098	0.508554
5	0x3f56dda4	0.83931947
6	0xbec1de03	-0.37864694
7	0xbf77336b	-0.9656283
8	0xbe965074	-0.29358256
9	0xbd9aa891	-0.07551683
10	0x3e7da064	0.24768215
11	0x3f2b60e5	0.66944724
12	0x3f1b4456	0.6065115
13	0xbbc580ec	-0.0060273316
14	0x3f184aa0	0.5948887
15	0x3f05b825	0.5223411
16	0xbf4ea19a	-0.80715334
17	0x3ed6b23f	0.41932866
18	0xbf44a7c9	-0.7681852
19	0xbf652f6a	-0.89525473
20	0xbf05b71c	-0.5223253
21	0xbf6c3b21	-0.92277724
22	0x3edd3419	0.4320381
23	0x3f5421e3	0.8286421
24	0x3f048531	0.51765734
25	0x3debcad9	0.115132995
26	0xbd87fb4f	-0.0663973
27	0xbf1a4667	-0.60263675
28	0xbf4082da	-0.75199664
29	0x3d0b19c5	0.033960123
30	0xbed858ab	-0.42255148
31	0xbf3b8679	-0.73252064

fc.bias f4 [2]
0	0x3e856690	0.2605481
1	0xbe084a40	-0.13309574
