checkpoint/classifier/COLLAB/GCN.pth (torch, 3808 bytes, 6 tensors)

conv1.bias f4 [16]
0	0xbcf3e675	-0.029772976
1	0x3d4a39e3	0.04937161
2	0xbeb222a4	-0.34792054
3	0x3e580250	0.21094632
4	0xbec16b47	-0.3777716
5	0x3ee73d15	0.4516379
6	0x3f0f4e2e	0.5597867
7	0x3f1a753d	0.6033514
8	0xbd809b78	-0.06279653
9	0xbe907abc	-0.2821864
10	0xbedb4e2e	-0.42833084
11	0xbd561456	-0.052265488
12	0x3cfe9715	0.0310779
13	0xbd74fb74	-0.059810117
14	0xbef08592	-0.46976906
15	0x3f0523e4	0.5200789

conv1.lin.weight f4 [16, 1]
0	0xbef5d053	-0.480105
1	0xbf031740	-0.5120735
2	0xbf135548	-0.57552004
3	0x3fe8ef62	1.8198054
4	0xbf184652	-0.594823
5	0x3eec298b	0.46125445
6	0x3f1e6099	0.61866146
7	0x3f26277b	0.6490399
8	0xbdca5555	-0.09879557
9	0xbf21e31a	-0.63237154
10	0xbf25a03e	-0.64697635
11	0xbd220740	-0.039557695
12	0xbeb7d778	-0.35906577
13	0xbec7dfb8	-0.3903787
14	0xbf2bca92	-0.6710597
15	0x3f19767a	0.59946406

conv2.bias f4 [16]
0	0x3cf4588a	0.029827375
1	0x3e53a85a	0.2066969
2	0xbe50183d	-0.20321746
3	0xbe28e9c6	-0.16495427
4	0xbe3083ee	-0.17237827
5	0xbd0de32d	-0.03464048
6	0xbe067094	-0.13128883
7	0x3e735dcb	0.23766248
8	0xbe910825	-0.28326526
9	0xbd507009	-0.050888095
10	0xbe3c2614	-0.183739
11	0x3e77f6f0	0.24215293
12	0xbe853f59	-0.26024893
13	0xbe81d776	-0.25359696
14	0x3e87055d	0.2637128
15	0xbdf61ba4	-0.12016991

conv2.lin.weight f4 [16, 16]
0	0xbdb76edb	-0.08956691
1	0xbe7f2386	-0.24915895
2	0xbecdc699	-0.4019058
3	0x3ecfa98b	0.4055904
4	0xbec5fc3b	-0.38669
5	0x3ecc59a1	0.3991213
6	0x3e892b9c	0.26791084
7	0x3f11ab9f	0.569025
8	0xbd4089c1	-0.047006372
9	0xbe7b9f38	-0.24572456
10	0xbe93fa22	-0.28901774
11	0xbbfe3eca	-0.00775895
12	0xbe988d42	-0.2979527
13	0xbe88500a	-0.26623565
14	0xbe5c879c	-0.21536106
15	0x3e953880	0.2914467
16	0xbd984872	-0.07435693
17	0x3e7da8f3	0.2477148
18	0x3c824670	0.015902728
19	0xbee021a6	-0.43775672
20	0xbe9200ec	-0.28516328
21	0xbd97600a	-0.07391365
22	0xbdedaf14	-0.11605659
23	0x3d52f71b	0.05150519
24	0xbd21b124	-0.039475575
25	0x3e6baf91	0.23016192
26	0xbe47d741	-0.19515707
27	0xbc515ecf	-0.012778952
28	0x3da09af2	0.078420535
29	0x3d7ea242	0.06216646
30	0xbeb21f8e	-0.347897
31	0xbccf59a5	-0.0253113
32	0x3d3f98f4	0.046776727
33	0xbe847f5e	-0.25878423
34	0xbeb1d22e	-0.34730667
35	0x3e2e0a61	0.16996147
36	0xbe74b0fd	-0.2389564
37	0x3ee6d1e3	0.45082006
38	0x3ed9dd45	0.42551628
39	0x3ea10acd	0.31453553
40	0xbd967b89	-0.07347781
41	0xbe87f768	-0.26555943
42	0xbeb1fa75	-0.34761396
43	0xbc3bb439	-0.011456543
44	0xbe152028	-0.14563048
45	0xbe59d417	-0.21272312
46	0xbecbc5fb	-0.39799485
47	0x3ef6d83b	0.48211846
48	0xbe71db61	-0.23618843
49	0xbe2e1e4d	-0.17003746
50	0xbe50c862	-0.2038894
51	0x3f044fa2	0.5168401
52	0x3cb4a625	0.02205188
53	0x3ec73e53	0.38914737
54	0x3ecd57b3	0.40105972
55	0x3dc9ef5e	0.09860109
56	0xbb116e06	-0.0022190823
57	0xbe95becb	-0.29247126
58	0xbca81d53	-0.020521795
59	0x3b386431	0.002813589
60	0xbe988f78	-0.29796958
61	0xbcab865d	-0.020938093
62	0x3d6f71c4	0.058458105
63	0x3f094965	0.53627616
64	0x3e0e716c	0.13910455
65	0x3e23c114	0.15991622
66	0x3f10168a	0.5628439
67	0x3e06160d	0.13094349
68	0x3f283f0b	0.65721196
69	0xbeebb40e	-0.46035808
70	0xbf153807	-0.58288616
71	0xbf163901	-0.5868073
72	0x3dcdfc7f	0.100579254
73	0x3e81984d	0.2531151
74	0x3f1e54ef	0.6184835
75	0x3cca0437	0.024660213
76	0x3e79efe6	0.2440792
77	0x3e8daddd	0.2767171
78	0x3f12a21e	0.5727862
79	0xbed14fed	-0.4088129
80	0x3e9c9d20	0.30588627
81	0x3e99908a	0.29993087
82	0x3ed5333e	0.41640657
83	0xbe3fdf74	-0.18737584
84	0x3ecf8992	0.40534645
85	0xbed18d0c	-0.40927923
86	0xbf092777	-0.53575844
87	0xbee1a599	-0.44071653
88	0x3d7eb265	0.06218185
89	0x3e7ac1fb	0.2448806
90	0x3e8eb68f	0.27873656
91	0x3c4f9327	0.012669361
92	0x3d7c8d59	0.061658237
93	0x3dfa1589	0.12211139
94	0x3ea6f62e	0.32609695
95	0xbeca8646	-0.39555568
96	0xbe4b7ff9	-0.19873036
97	0xbdae8e34	-0.08523217
98	0x3db9ca40	0.09071779
99	0x3f60ea5b	0.878576
100	0xbe78c1c3	-0.24292664
101	0x3ebb4be4	0.36581337
102	0x3f15735a	0.5837914
103	0x3f06c7d6	0.52648675
104	0x3bec0163	0.0072023137
105	0xbeba5755	-0.36394754
106	0x3e15928c	0.14606684
107	0x3b8b4d3e	0.0042511513
108	0xbe8fd509	-0.2809222
109	0xbe76d1b1	-0.24103428
110	0xbd8920dc	-0.066957206
111	0x3f07f330	0.5310545
112	0x3d72dea8	0.059294373
113	0xbe6b2525	-0.22963388
114	0xbf071138	-0.5276065
115	0xbf62c39e	-0.8857974
116	0xbed6b044	-0.41931355
117	0x3dbcfc34	0.092277914
118	0xbd031af3	-0.032008123
119	0x3ce6f6f1	0.028193923
120	0xbe37eb25	-0.17960794
121	0x3dc761dc	0.09735462
122	0xbf2c7262	-0.67362034
123	0xbd0007a1	-0.031257275
124	0xbe003edb	-0.12523977
125	0xbe1263b3	-0.14295845
126	0xbf1d192d	-0.6136654
127	0x3bbffd4b	0.0058590523
128	0xbd514124	-0.051087514
129	0x3dc33d22	0.095331445
130	0x3d5e930f	0.054339465
131	0x3f2cf8a0	0.6756687
132	0x3c24cf82	0.010059239
133	0x3ea10f56	0.31457013
134	0x3e132d60	0.14372778
135	0x3ed5d9de	0.41767782
136	0x3cb6a3bd	0.022294873
137	0xbeb98968	-0.36237645
138	0x3e213b28	0.15745223
139	0x3c097c25	0.008391415
140	0xbe75d2bf	-0.24006175
141	0xbaad8fbe	-0.0013241691
142	0x3d5d8698	0.054083437
143	0x3eb0b067	0.34509584
144	0x3ec27b42	0.37984663
145	0x3d713e50	0.058897316
146	0x3e974f86	0.2955286
147	0xbe8944bd	-0.26810256
148	0x3e822b8c	0.2542385
149	0xbeeb56f0	-0.45964766
150	0xbef257b8	-0.4733255
151	0xbf00d42f	-0.50323766
152	0x3db7f2c6	0.08981852
153	0x3e811aa1	0.2521563
154	0x3eb1314e	0.3460793
155	0x3c7e7ed7	0.015533171
156	0x3dbf873e	0.09351967
157	0x3e50b1d3	0.20380335
158	0x3ebc1158	0.36731982
159	0xbec7423e	-0.38917726
160	0xbd110d27	-0.035412934
161	0xbd56207f	-0.052277084
162	0x3e913d2e	0.2836699
163	0x3e547c3f	0.20750521
164	0x3e496dd3	0.19670801
165	0xbdeeaf88	-0.11654574
166	0xbe38da98	-0.18052137
167	0xbe031d08	-0.12804043
168	0x3d8324bb	0.0640349
169	0x39ef11a4	0.00045598776
170	0x3e918c4c	0.2842735
171	0x3c280a2a	0.01025633
172	0x3cb87b5b	0.022519758
173	0x3de42718	0.11140269
174	0x3e823cbb	0.2543696
175	0xbe31db66	-0.1736885
176	0xbd1e2ece	-0.038618855
177	0x3e9916bc	0.29900157
178	0x3c6e6976	0.014551511
179	0xbee91979	-0.45527247
180	0xbcb6cba9	-0.02231391
181	0xbe0b35a9	-0.13594688
182	0xbe250921	-0.16116764
183	0xbdcaf26c	-0.099095196
184	0xbd1e1270	-0.038591802
185	0x3e831192	0.25599343
186	0xbe16e3a9	-0.14735283
187	0xbc8c9091	-0.017158778
188	0x3da5260f	0.080639
189	0x3e1c73f4	0.15278608
190	0xbdc1a4d1	-0.09455264
191	0xbe0511e0	-0.129951
192	0x3e013fc0	0.12621975
193	0xbd76efb0	-0.060287178
194	0x3dbfe855	0.09370486
195	0x3f2b20cb	0.66846913
196	0x3df6f4bc	0.12058398
197	0xbbd3f84c	-0.0064688083
198	0x3d55c037	0.052185263
199	0x3c0ae981	0.008478523
200	0x3dc945a5	0.09827737
201	0xbe777ea0	-0.24169397
202	0x3e5a51ee	0.21320316
203	0x3d0caf6a	0.034346975
204	0xbdefd87b	-0.11711212
205	0x3d8f3409	0.06992347
206	0x3ec9b85e	0.39398474
207	0xbd2fbab7	-0.042902675
208	0x3becb02b	0.0072231493
209	0x3dfe6fc8	0.12423664
210	0xbdc17368	-0.0944584
211	0x3f1b53e4	0.6067488
212	0xbcf20647	-0.029544009
213	0x3ebf6caf	0.37387607
214	0x3e2451ee	0.16046879
215	0x3e8b799f	0.27241227
216	0x3c651a42	0.013983311
217	0xbec2aebd	-0.3802394
218	0x3e11eb89	0.14250006
219	0x3c09d0f4	0.008411635
220	0x3d529536	0.05141183
221	0xbe24ca04	-0.16092688
222	0x3dede6e5	0.11616305
223	0x3ee12126	0.43970603
224	0x3e1e296d	0.1544549
225	0x3e972979	0.2952383
226	0xbea558e5	-0.32294384
227	0xbf6ef838	-0.933475
228	0xbee62e4e	-0.44957203
229	0xbdd320f7	-0.10309022
230	0xbd9b0043	-0.07568409
231	0xbd33ff11	-0.043944422
232	0xbded06e2	-0.115735784
233	0x3e901747	0.2814276
234	0xbf095ed4	-0.5366032
235	0xbd012091	-0.0315252
236	0x3df6b986	0.120471045
237	0xbe12b872	-0.14328173
238	0xbf1553c8	-0.58330965
239	0xbeab276e	-0.3342852
240	0xbe913e27	-0.2836773
241	0xbd011359	-0.031512592
242	0xbee4c28e	-0.44679683
243	0x3e30c57d	0.17262836
244	0xbed56831	-0.41681054
245	0x3ea0f332	0.31435543
246	0x3ec37937	0.38178417
247	0x3ef0e3fb	0.47048935
248	0xbddd9001	-0.10818482
249	0xbe849269	-0.25892952
250	0xbeb6b4fb	-0.35684952
251	0xbc5fa08f	-0.01364912
252	0xbdbc36a1	-0.09190107
253	0xbe8af6db	-0.2714146
254	0xbeb0076d	-0.34380665
255	0x3edff800	0.43743896

fc.weight f4 [3, 16]
0	0x3e615400	0.220047
1	0x3e998541	0.29984477
2	0x3ed6e5bb	0.41972145
3	0xbda06e78	-0.0783357
4	0xbf1b907f	-0.6076736
5	0xbeb71fc5	-0.35766426
6	0xbe97abe8	-0.29623342
7	0x3f6060da	0.87647784
8	0xbe3511b7	-0.17682539
9	0xbe9fe234	-0.31227267
10	0xbe82dbfe	-0.25558466
11	0x3e04b186	0.12958345
12	0xbecdc19f	-0.40186784
13	0xbe5895f8	-0.21150959
14	0x3f27e341	0.65581137
15	0x3e989d0c	0.29807317
16	0xbf3c0b47	-0.7345471
17	0x3c628a1a	0.013826871
18	0xbf3b72b6	-0.7322191
19	0xbf0984a6	-0.5371803
20	0x3f532800	0.8248291
21	0x3f394362	0.72368443
22	0xbf560172	-0.83595955
23	0xbedc6be0	-0.43051052
24	0xbecf58e4	-0.40497506
25	0x3f307e8a	0.68943083
26	0x3e94a48a	0.29031783
27	0x3d1f5bda	0.038905956
28	0xbae1d884	-0.0017230664
29	0xbf0af42a	-0.54278815
30	0xbd0a5c65	-0.03377952
31	0xbf5fed7f	-0.87471765
32	0x3eb03861	0.34418014
33	0xbe9eeab2	-0.31038433
34	0x3eee18b0	0.4650321
35	0x3f011200	0.5041809
36	0xbe31dd85	-0.17369659
37	0xbeb3f624	-0.35148728
38	0x3f29acc3	0.6627924
39	0xbf3b4a04	-0.73159814
40	0x3f250eea	0.6447588
41	0xbebd7694	-0.3700453
42	0x3ce65fba	0.028121818
43	0xbedb77cc	-0.42864835
44	0x3e94e3a4	0.29079926
45	0x3f3554d6	0.70832574
46	0xbf215336	-0.63017595
47	0x3e866a86	0.26253146

fc.bias f4 [3]
0	0x3ded3cb2	0.11583842
1	0xbe8fd037	-0.28088543
2	0x3b9896d1	0.0046566506
