checkpoint/classifier/IMDB-MULTI/GCN.pth (torch, 3808 bytes, 6 tensors)

conv1.bias f4 [16]
0	0xbec722f6	-0.3889386
1	0xbe3c831b	-0.18409388
2	0xbb7b9bd0	-0.0038392432
3	0xbfb8c2cf	-1.4434451
4	0xbde21133	-0.11038437
5	0xbe895d36	-0.26828927
6	0xbe8493f9	-0.25894144
7	0xbe997a9e	-0.29976362
8	0xbdbe2b8d	-0.092856504
9	0xbe00a962	-0.12564614
10	0xbfc4c57e	-1.537277
11	0xbeedab8b	-0.4641994
12	0x3e3f75d9	0.18697299
13	0xbda8fcb3	-0.082513236
14	0xbe0572ac	-0.13032025
15	0x3e497e05	0.19676979

conv1.lin.weight f4 [16, 1]
0	0xbf35109c	-0.7072847
1	0xbef297c8	-0.47381425
2	0x3f0fd287	0.56180614
3	0x3f59a223	0.85013026
4	0xbefa7ecb	-0.4892486
5	0x3f1093ac	0.5647533
6	0x3f0ed1a2	0.55788624
7	0x3f1c4367	0.6104035
8	0xbf0e8aeb	-0.5568072
9	0xbf0c769e	-0.54868495
10	0x3f1db7fa	0.6160885
11	0xbf4d6f0d	-0.80247575
12	0x3eb1597a	0.34638578
13	0xbecd6fd4	-0.4012438
14	0xbeff9b88	-0.49923348
15	0x3ebb365b	0.36564907

conv2.bias f4 [16]
0	0xbd27a988	-0.040933162
1	0xbcfcc61b	-0.030856183
2	0x3d41787d	0.047234047
3	0xbde10b9b	-0.10988542
4	0x3d9a8869	0.075455494
5	0xbd3cbd5d	-0.04607903
6	0x39310597	0.00016882118
7	0x3d6edc73	0.058315706
8	0x3cdb28ab	0.02675279
9	0xbd6c2b0e	-0.057658248
10	0x3d58c0cf	0.05291825
11	0xbdbb9c7f	-0.09160709
12	0x3dabe248	0.08392769
13	0x3d12daa3	0.03585304
14	0xbd21bed4	-0.03948863
15	0xbd63edf4	-0.05564685

conv2.lin.weight f4 [16, 16]
0	0x3ed7f2f3	0.42177543
1	0x3dbe3394	0.092871815
2	0x3dafe747	0.085890345
3	0x3f33a71e	0.70176876
4	0x3d835105	0.064119376
5	0xbe6ecd46	-0.23320493
6	0xbe5815c3	-0.21102051
7	0xbe669029	-0.2251593
8	0x3d60cf38	0.05488512
9	0x3ce1119f	0.027474223
10	0x3f61e401	0.8823853
11	0x3ee09529	0.438638
12	0x3dd26c3d	0.10274551
13	0x3d110547	0.035405423
14	0xb9d73462	-0.00041047024
15	0x3de5f623	0.112285875
16	0xbbd722c0	-0.006565422
17	0x3e1364d9	0.14393939
18	0x3e67b70f	0.22628425
19	0x3f1e38e5	0.61805564
20	0x3e4a458e	0.19753096
21	0x3d5e9571	0.054341737
22	0x3b4d8394	0.0031358944
23	0xbc474bb4	-0.012164045
24	0x3e525dd0	0.20543599
25	0x3e2374b2	0.15962484
26	0xbec131c1	-0.37733272
27	0x3d6d5082	0.057938106
28	0xbe0d9ab8	-0.13828552
29	0x3e24a873	0.16079883
30	0x3e061e9f	0.13097619
31	0xbe015fd1	-0.12634207
32	0x3ef02d8a	0.46909744
33	0xbcf6178b	-0.030040523
34	0x3cfeb8ae	0.031093922
35	0x3eeb6c01	0.45980838
36	0xbd93215b	-0.071840964
37	0xbea02d12	-0.31284386
38	0xbea6242d	-0.32449475
39	0xbea0ef1e	-0.31432432
40	0xbdae77b9	-0.08518929
41	0xbae6ca34	-0.0017607869
42	0x3f86ae34	1.0521913
43	0x3eee2680	0.46513748
44	0x3e0c0485	0.13673599
45	0xbd94fdd0	-0.072749734
46	0xbd6a3e8d	-0.05718856
47	0x3e66d079	0.22540464
48	0x3d9d1b0a	0.07671173
49	0x3e43c02b	0.19116275
50	0x3e6b6289	0.22986807
51	0x3f3a3fea	0.72753775
52	0x3e6a290c	0.2286722
53	0x3d357a9e	0.04430639
54	0xbc2ff478	-0.010739438
55	0x3b291ee0	0.0025805756
56	0x3e72a94f	0.23697399
57	0x3e94b951	0.29047635
58	0xbe5ec09d	-0.21753164
59	0x3e213061	0.15741111
60	0xbe03ee80	-0.1288395
61	0x3e07da6d	0.13266917
62	0x3e3926ef	0.18081258
63	0xbdf367db	-0.11885043
64	0xbe6b8d23	-0.23003058
65	0xbe418830	-0.18899608
66	0xbe348822	-0.17630056
67	0xbf44f3c1	-0.7693444
68	0xbe3bdea6	-0.18346652
69	0x3d87767a	0.066143945
70	0x3d9fe0aa	0.07806523
71	0x3e09e2f4	0.13465482
72	0xbe3620c7	-0.17785941
73	0xbe5b3f19	-0.21410789
74	0xbe454e80	-0.19268227
75	0xbe9af320	-0.30263615
76	0x3d369b4f	0.044581708
77	0xbe3eb813	-0.18624906
78	0xbe36b6e0	-0.17843199
79	0x3d9faffc	0.07797238
80	0x3e3a72e4	0.1820789
81	0x3e15ef73	0.14642124
82	0x3e39ad88	0.18132603
83	0x3f324859	0.69641644
84	0x3e1b688b	0.15176599
85	0xbd269a10	-0.04067427
86	0xbd833166	-0.064059064
87	0xbe1003cb	-0.14063947
88	0x3e238de5	0.15972097
89	0x3e28a01b	0.16467325
90	0x3e19d846	0.15023908
91	0x3e6a3848	0.22873032
92	0xbcdd7d7e	-0.027037378
93	0x3ddd37b7	0.108016424
94	0x3de6a2f4	0.112615496
95	0xbd2ba469	-0.04190484
96	0xbea7699d	-0.32697764
97	0xbe030393	-0.12794332
98	0xbe09b2f7	-0.13447176
99	0xbf352a10	-0.7076731
100	0xbd9a79c1	-0.07542754
101	0x3def741d	0.11692069
102	0x3e4d523b	0.200509
103	0x3e5337d7	0.2062677
104	0xbddc0fde	-0.10745214
105	0xbdf7ae6d	-0.12093816
106	0xbf1bea1d	-0.60904104
107	0xbeb3f487	-0.35147497
108	0x3cb502fd	0.022096151
109	0xbd43b8be	-0.047783606
110	0xbdc27610	-0.09495175
111	0xbd45f2f8	-0.048327416
112	0x3e55dfd7	0.2088617
113	0xbdde5b46	-0.10857253
114	0xbe2f5e47	-0.17125808
115	0xbe4133e7	-0.18867455
116	0xbe29c4cb	-0.16578977
117	0xbe4609af	-0.19339631
118	0xbe295b50	-0.16538739
119	0xbdfcad76	-0.123377725
120	0xbe3e4919	-0.18582572
121	0xbe04a35b	-0.1295294
122	0x3f3010df	0.68775743
123	0x3e2b24d8	0.16713274
124	0x3e1d20c4	0.1534453
125	0xbdf78b40	-0.12087107
126	0xbe0eebdd	-0.13957162
127	0x3e3b03c6	0.18263158
128	0x3ecef892	0.4042402
129	0xbe048d4c	-0.12944525
130	0xbe19e0a7	-0.15027104
131	0x3da3e404	0.08002475
132	0xbe3cddce	-0.18443987
133	0xbe8cedf3	-0.2752529
134	0xbe8b14df	-0.2716436
135	0xbe6e1909	-0.23251738
136	0xbe52ccb1	-0.20585896
137	0xbdfa22be	-0.12213658
138	0x3f7b0556	0.98055017
139	0x3ebcae34	0.36851656
140	0x3e55fd64	0.20897442
141	0xbe0518cc	-0.1299774
142	0xbe2cfa7c	-0.16892427
143	0x3e861aed	0.26192418
144	0xbe1a5959	-0.15073146
145	0x3e051c1b	0.12999003
146	0x3e553747	0.20821868
147	0x3ea62c28	0.32455564
148	0x3e402f46	0.18768033
149	0x3e2bd649	0.16780962
150	0x3e0d4dc5	0.13799198
151	0x3dca7aee	0.09886728
152	0x3e4dc332	0.20093992
153	0x3e254db8	0.16142929
154	0xbf15f9c1	-0.5858422
155	0xbdcbc6a7	-0.09949999
156	0xbe34fcbc	-0.17674536
157	0x3e12e058	0.14343393
158	0x3e0fabe3	0.14030413
159	0xbe375f8f	-0.17907546
160	0x3e2d64a7	0.16932927
161	0xbe2a8874	-0.16653615
162	0xbe69940a	-0.22810379
163	0xbea4bf97	-0.3217742
164	0xbe67257c	-0.22572893
165	0xbe6e6387	-0.23280154
166	0xbe3feb79	-0.1874217
167	0xbe1e348f	-0.15449737
168	0xbe5d4c89	-0.21611227
169	0xbe1cbdf9	-0.15306844
170	0x3f232338	0.63725615
171	0x3d940474	0.07227412
172	0x3e63d52b	0.22249286
173	0xbe3f6b56	-0.18693289
174	0xbdf0190d	-0.11723528
175	0x3e2f369f	0.1711068
176	0x3e5ac264	0.21363217
177	0x3e3a95e7	0.18221246
178	0x3e7af02c	0.24505681
179	0x3f427fcb	0.75976247
180	0x3e44c898	0.19217145
181	0xbdd720bd	-0.10504291
182	0xbd936733	-0.07197418
183	0xbd7a78fd	-0.06115054
184	0x3e298654	0.16555148
185	0x3e1ca373	0.15296726
186	0x3e23115f	0.15924595
187	0x3e963531	0.29337457
188	0xbd94aa8b	-0.07259091
189	0x3e07be10	0.13256097
190	0x3db7a820	0.08967614
191	0xbdba465a	-0.0909545
192	0xbe336749	-0.17519869
193	0xbe176382	-0.14784053
194	0xbe34e08e	-0.17663786
195	0xbf3233a3	-0.6961004
196	0xbe242265	-0.16028745
197	0x3d0acbca	0.033885755
198	0x3dc4c6dd	0.09608243
199	0x3d44d4a6	0.04805436
200	0xbe318e69	-0.17339481
201	0xbe2cf15c	-0.16888946
202	0xbda33302	-0.07968713
203	0xbe869ea2	-0.26292902
204	0x3d599b79	0.053126786
205	0xbe163805	-0.14669807
206	0xbdecc449	-0.11560876
207	0x3dc2254b	0.09479769
208	0x3e1751a4	0.14777237
209	0xbc1eb46e	-0.0096865725
210	0xbce050a9	-0.027382212
211	0x39f4150b	0.00046554985
212	0xbd49ea5d	-0.049295772
213	0xbdc19b81	-0.09453488
214	0xbda78c02	-0.08181001
215	0xbd8e02a5	-0.06934098
216	0xbd6fff3a	-0.058593012
217	0xbc8bb7ea	-0.01705547
218	0x3ede78f4	0.43451655
219	0x3e0e2eb9	0.13885011
220	0x3d932490	0.07184708
221	0xbcea5892	-0.028606687
222	0xbd141f16	-0.03616246
223	0x3d5b622f	0.053560432
224	0x3f0d0047	0.5507855
225	0x3daa8a15	0.08327118
226	0x3dd008dc	0.1015794
227	0x3f5022e8	0.8130326
228	0x3c024d82	0.00795305
229	0xbe86512c	-0.26233804
230	0xbe906741	-0.28203776
231	0xbe7f2ae6	-0.24918708
232	0x3d1b01f7	0.03784367
233	0xbaa2c780	-0.0012419075
234	0x3f933ac4	1.1502309
235	0x3f082de1	0.53195006
236	0x3e0db91f	0.1384015
237	0x3c903862	0.01760501
238	0xbb78a842	-0.0037942086
239	0x3e0a0f71	0.13482453
240	0x3e52acdb	0.20573752
241	0x3e00941f	0.12556504
242	0x3e307a68	0.17234194
243	0x3f190611	0.5977488
244	0x3dfb7eed	0.122800685
245	0xbdbd836a	-0.09253581
246	0xbda89448	-0.082314074
247	0xbdbeb5a0	-0.09311986
248	0x3df02ec4	0.1172767
249	0x3de80b74	0.113303095
250	0x3e96e1a5	0.29469028
251	0x3e887859	0.26654318
252	0xbd2a182e	-0.041526966
253	0x3da8d267	0.08243256
254	0x3dad2935	0.08455125
255	0xbcec3af8	-0.028836712

fc.weight f4 [3, 16]
0	0x3f57dc40	0.8432045
1	0x3d3993c1	0.045306925
2	0x3f8d0193	1.1016105
3	0x3e14e19b	0.14539187
4	0xbf00917f	-0.5022201
5	0x3eb15f8c	0.3464321
6	0xbf26b7c0	-0.6512413
7	0x3ebccf57	0.36876938
8	0x3f49ed6e	0.78877914
9	0xbee66fca	-0.45007163
10	0x3eb7119b	0.3575562
11	0x3edde53a	0.43338948
12	0xbecd04ce	-0.40042728
13	0x3ead24b4	0.33817065
14	0x3f9e1049	1.234872
15	0x3ed5cd1e	0.41758054
16	0xbe47fb8b	-0.1952955
17	0x3f10a5ca	0.56502974
18	0xbebb65f6	-0.36601228
19	0x3eef87d5	0.4678332
20	0xbeaac0dc	-0.33350265
21	0x3e6bb0d5	0.23016675
22	0x3a7ddba0	0.0009683911
23	0xbf1c9483	-0.6116411
24	0xbf3b8131	-0.73244005
25	0x3ec0d425	0.37661853
26	0xbf1dfad7	-0.61710876
27	0x3e9e1b17	0.30880043
28	0xbeb6deab	-0.35716757
29	0xbe3638c0	-0.17795086
30	0xbe5a55df	-0.2132182
31	0x3dfddbc9	0.12395436
32	0xbf565e39	-0.8373752
33	0xbedc67a4	-0.43047822
34	0xbee0f60b	-0.43937716
35	0xbf197fcf	-0.59960645
36	0x3f374aa4	0.7159827
37	0xbf3b2ec4	-0.73118234
38	0x3f54bfee	0.8310536
39	0x3d3bce2b	0.045850914
40	0xbe400026	-0.18750057
41	0xbeb8ce2b	-0.36094794
42	0x3e81f357	0.25380966
43	0xbf41e586	-0.7574085
44	0x3f1d94a4	0.6155493
45	0xbd7efd5b	-0.062253337
46	0xbf5a94a4	-0.8538306
47	0xbf2aafe1	-0.6667462

fc.bias f4 [3]
0	0x3e38d36f	0.18049406
1	0x3debfaec	0.11522469
2	0x3e9e56c7	0.3092558
